…
max_input_sequence_length=32, learning_rate=0.0001, dropout=0.1, num_epochs=100, optimizer='AdamW', weight_decay=0.0, patience=150, val_ratio=0.15, test_ratio=0.15, num_runs=1, test_interval_epochs=10, negative_sample_strategy='random', load_best_configs=True, use_wandb='reparamcorr-time-mlp', use_ROPe=False, t1_factor_of_t2=1, use_init_method=True, emb_proj=False, init_weights='time-mlp', clip=1.0, device='cuda:0', seed=0, save_model_name='TGN_seed0_tgn-ia-movielens-user2tags-10m-reparamcorr-time-mlp')
INFO:root:model -> Sequential(
  (0): MemoryModel(
    (mlp_for_mean): Sequential(
      (0): Linear(in_features=172, out_features=172, bias=True)
    )
    (mlp_for_sigma): Sequential(
      (0): Linear(in_features=172, out_features=172, bias=True)
    )
    (time_encoder): TimeEncoder(
      (w): Linear(in_features=1, out_features=100, bias=True)
    )
    (emb_proj): Sequential(
      (0): Linear(in_features=172, out_features=172, bias=True)
      (1): ReLU()
    )
    (time_transformation_for_init): TimeInitTransformMLP(
      (mlp_for_time): Sequential(
        (0): Linear(in_features=1, out_features=1, bias=True)
        (1): ReLU()
        (2): Linear(in_features=1, out_features=1, bias=True)
        (3): ReLU()
        (4): Linear(in_features=1, out_features=1, bias=True)
      )
    )
    (message_aggregator): MessageAggregator()
    (memory_bank): MemoryBank(num_nodes=10108, memory_dim=172)
    (memory_updater): GRUMemoryUpdater(
      (memory_bank): MemoryBank(num_nodes=10108, memory_dim=172)
      (memory_updater): GRUCell(616, 172)
    )
    (embedding_module): GraphAttentionEmbedding(
      (time_encoder): TimeEncoder(
        (w): Linear(in_features=1, out_features=100, bias=True)
      )
      (temporal_conv_layers): ModuleList(
        (0): MultiHeadAttention(
          (query_projection): Linear(in_features=272, out_features=272, bias=False)
          (key_projection): Linear(in_features=444, out_features=272, bias=False)
          (value_projection): Linear(in_features=444, out_features=272, bias=False)
          (layer_norm): LayerNorm((272,), eps=1e-05, elementwise_affine=True)
          (residual_fc): Linear(in_features=272, out_features=272, bias=True)
          (dropout): Dropout(p=0.1, inplace=False)
        )
      )
      (merge_layers): ModuleList(
        (0): MergeLayer(
          (fc1): Linear(in_features=444, out_features=172, bias=True)
          (fc2): Linear(in_features=172, out_features=172, bias=True)
          (act): ReLU()
        )
      )
    )
  )
  (1): MergeLayer(
    (fc1): Linear(in_features=344, out_features=172, bias=True)
    (fc2): Linear(in_features=172, out_features=1, bias=True)
    (act): ReLU()
  )
)
INFO:root:model name: TGN, #parameters: 4212972 B, 4114.23046875 KB, 4.017803192138672 MB.
The dataset has 50631 interactions, involving 10106 different nodes
The training dataset has 29100 interactions, involving 7154 different nodes
The validation dataset has 7596 interactions, involving 4118 different nodes
The test dataset has 7577 interactions, involving 4144 different nodes
…
e, use_wandb='repcorr-time-exp', use_ROPe=False, t1_factor_of_t2=1, use_init_method=True, emb_proj=False, init_weights='time-exp', clip=1.0, device='cuda:0', seed=0, save_model_name='TGN_seed0_dummy-0p1zx38t')
  0%|          | 0/140777 [00:00<?, ?it/s]100%|██████████| 140777/140777 [00:00<00:00, 1495846.66it/s]
  0%|          | 0/140777 [00:00<?, ?it/s] 97%|█████████▋| 136710/140777 [00:00<00:00, 1367023.08it/s]100%|██████████| 140777/140777 [00:00<00:00, 1359392.24it/s]
INFO:root:model -> Sequential(
  (0): MemoryModel(
    (time_transformation_for_init): TimeInitTransformExp(
      (lin): Linear(in_features=1, out_features=1, bias=False)
    )
    (mlp_for_mean): Sequential(
      (0): Linear(in_features=172, out_features=172, bias=True)
    )
    (mlp_for_sigma): Sequential(
      (0): Linear(in_features=172, out_features=172, bias=True)
    )
    (time_encoder): TimeEncoder(
      (w): Linear(in_features=1, out_features=100, bias=True)
    )
    (emb_proj): Sequential(
      (0): Linear(in_features=172, out_features=172, bias=True)
      (1): ReLU()
    )
    (message_aggregator): MessageAggregator()
    (memory_bank): MemoryBank(num_nodes=27046, memory_dim=172)
    (memory_updater): GRUMemoryUpdater(
      (memory_bank): MemoryBank(num_nodes=27046, memory_dim=172)
      (memory_updater): GRUCell(616, 172)
    )
    (embedding_module): GraphAttentionEmbedding(
      (time_encoder): TimeEncoder(
        (w): Linear(in_features=1, out_features=100, bias=True)
      )
      (temporal_conv_layers): ModuleList(
        (0): MultiHeadAttention(
          (query_projection): Linear(in_features=272, out_features=272, bias=False)
          (key_projection): Linear(in_features=444, out_features=272, bias=False)
          (value_projection): Linear(in_features=444, out_features=272, bias=False)
          (layer_norm): LayerNorm((272,), eps=1e-05, elementwise_affine=True)
          (residual_fc): Linear(in_features=272, out_features=272, bias=True)
          (dropout): Dropout(p=0.1, inplace=False)
        )
      )
      (merge_layers): ModuleList(
        (0): MergeLayer(
          (fc1): Linear(in_features=444, out_features=172, bias=True)
          (fc2): Linear(in_features=172, out_features=172, bias=True)
          (act): ReLU()
        )
      )
    )
  )
  (1): MergeLayer(
    (fc1): Linear(in_features=344, out_features=172, bias=True)
    (fc2): Linear(in_features=172, out_features=1, bias=True)
    (act): ReLU()
  )
)
INFO:root:model name: TGN, #parameters: 4212952 B, 4114.2109375 KB, 4.017784118652344 MB.
The dataset has 52049 interactions, involving 6809 different nodes
The training dataset has 23625 interactions, involving 3838 different nodes
The validation dataset has 7807 interactions, involving 1715 different nodes
The test dataset has 7808 interactions, involving 1937 different nodes
…
50, max_input_sequence_length=32, learning_rate=0.0001, dropout=0.1, num_epochs=100, optimizer='AdamW', weight_decay=0.0, patience=150, val_ratio=0.15, test_ratio=0.15, num_runs=1, test_interval_epochs=10, negative_sample_strategy='random', load_best_configs=True, use_wandb='repcorr-time-linear', use_ROPe=False, t1_factor_of_t2=1, use_init_method=True, emb_proj=False, init_weights='time-linear', clip=1.0, device='cuda:2', seed=0, save_model_name='TGN_seed0_dummy-eaaz8wii')
INFO:root:model -> Sequential(
  (0): MemoryModel(
    (time_transformation_for_init): TimeInitTransformLinear(
      (lin): Linear(in_features=1, out_features=1, bias=True)
    )
    (mlp_for_mean): Sequential(
      (0): Linear(in_features=172, out_features=172, bias=True)
    )
    (mlp_for_sigma): Sequential(
      (0): Linear(in_features=172, out_features=172, bias=True)
    )
    (time_encoder): TimeEncoder(
      (w): Linear(in_features=1, out_features=100, bias=True)
    )
    (emb_proj): Sequential(
      (0): Linear(in_features=172, out_features=172, bias=True)
      (1): ReLU()
    )
    (message_aggregator): MessageAggregator()
    (memory_bank): MemoryBank(num_nodes=10108, memory_dim=172)
    (memory_updater): GRUMemoryUpdater(
      (memory_bank): MemoryBank(num_nodes=10108, memory_dim=172)
      (memory_updater): GRUCell(616, 172)
    )
    (embedding_module): GraphAttentionEmbedding(
      (time_encoder): TimeEncoder(
        (w): Linear(in_features=1, out_features=100, bias=True)
      )
      (temporal_conv_layers): ModuleList(
        (0): MultiHeadAttention(
          (query_projection): Linear(in_features=272, out_features=272, bias=False)
          (key_projection): Linear(in_features=444, out_features=272, bias=False)
          (value_projection): Linear(in_features=444, out_features=272, bias=False)
          (layer_norm): LayerNorm((272,), eps=1e-05, elementwise_affine=True)
          (residual_fc): Linear(in_features=272, out_features=272, bias=True)
          (dropout): Dropout(p=0.1, inplace=False)
        )
      )
      (merge_layers): ModuleList(
        (0): MergeLayer(
          (fc1): Linear(in_features=444, out_features=172, bias=True)
          (fc2): Linear(in_features=172, out_features=172, bias=True)
          (act): ReLU()
        )
      )
    )
  )
  (1): MergeLayer(
    (fc1): Linear(in_features=344, out_features=172, bias=True)
    (fc2): Linear(in_features=172, out_features=1, bias=True)
    (act): ReLU()
  )
)
INFO:root:model name: TGN, #parameters: 4212952 B, 4114.2109375 KB, 4.017784118652344 MB.
INFO:root:model -> Sequential(
  (0): MemoryModel(
    (time_transformation_for_init): TimeInitTransformLinear(
      (lin): Linear(in_features=1, out_features=1, bias=True)
    )
    (mlp_for_mean): Sequential(
      (0): Linear(in_features=172, out_features=172, bias=True)
    )
    (mlp_for_sigma): Sequential(
      (0): Linear(in_features=172, out_features=172, bias=True)
    )
    (time_encoder): TimeEncoder(
      (w): Linear(in_features=1, out_features=100, bias=True)
    )
    (emb_proj): Sequential(
      (0): Linear(in_features=172, out_features=172, bias=True)
      (1): ReLU()
    )
    (message_aggregator): MessageAggregator()
    (memory_bank): MemoryBank(num_nodes=27046, memory_dim=172)
    (memory_updater): GRUMemoryUpdater(
      (memory_bank): MemoryBank(num_nodes=27046, memory_dim=172)
      (memory_updater): GRUCell(616, 172)
    )
    (embedding_module): GraphAttentionEmbedding(
      (time_encoder): TimeEncoder(
        (w): Linear(in_features=1, out_features=100, bias=True)
      )
      (temporal_conv_layers): ModuleList(
        (0): MultiHeadAttention(
          (query_projection): Linear(in_features=272, out_features=272, bias=False)
          (key_projection): Linear(in_features=444, out_features=272, bias=False)
          (value_projection): Linear(in_features=444, out_features=272, bias=False)
          (layer_norm): LayerNorm((272,), eps=1e-05, elementwise_affine=True)
          (residual_fc): Linear(in_features=272, out_features=272, bias=True)
          (dropout): Dropout(p=0.1, inplace=False)
        )
      )
      (merge_layers): ModuleList(
        (0): MergeLayer(
          (fc1): Linear(in_features=444, out_features=172, bias=True)
          (fc2): Linear(in_features=172, out_features=172, bias=True)
          (act): ReLU()
        )
      )
    )
  )
  (1): MergeLayer(
    (fc1): Linear(in_features=344, out_features=172, bias=True)
    (fc2): Linear(in_features=172, out_features=1, bias=True)
    (act): ReLU()
  )
)
INFO:root:model name: TGN, #parameters: 4212952 B, 4114.2109375 KB, 4.017784118652344 MB.
INFO:root:********** Run 1 starts. **********
INFO:root:configuration is Namespace(dataset_name='ia-slashdot-reply-dir', batch_size=200, model_name='TGN', gpu=0, num_neighbors=10, sample_neighbor_strategy='recent', time_scaling_factor=1e-06, 
…
The validation dataset has 7596 interactions, involving 4118 different nodes
The test dataset has 7577 interactions, involving 4144 different nodes
The new node validation dataset has 3845 interactions, involving 2930 different nodes
The new node test dataset has 4829 interactions, involving 3346 different nodes
1010 nodes were used for the inductive testing, i.e. are never seen during training
  0%|                                                                                           | 0/146 [00:00<?, ?it/s]INFO:root:model -> Sequential(
  (0): MemoryModel(
    (time_transformation_for_init): TimeInitTransformLinear(
      (lin): Linear(in_features=1, out_features=1, bias=True)
    )
    (mlp_for_mean): Sequential(
      (0): Linear(in_features=172, out_features=172, bias=True)
    )
    (mlp_for_sigma): Sequential(
      (0): Linear(in_features=172, out_features=172, bias=True)
    )
    (time_encoder): TimeEncoder(
      (w): Linear(in_features=1, out_features=100, bias=True)
    )
    (emb_proj): Sequential(
      (0): Linear(in_features=172, out_features=172, bias=True)
      (1): ReLU()
    )
    (message_aggregator): MessageAggregator()
    (memory_bank): MemoryBank(num_nodes=18471, memory_dim=172)
    (memory_updater): GRUMemoryUpdater(
      (memory_bank): MemoryBank(num_nodes=18471, memory_dim=172)
      (memory_updater): GRUCell(616, 172)
    )
    (embedding_module): GraphAttentionEmbedding(
      (time_encoder): TimeEncoder(
        (w): Linear(in_features=1, out_features=100, bias=True)
      )
      (temporal_conv_layers): ModuleList(
        (0): MultiHeadAttention(
          (query_projection): Linear(in_features=272, out_features=272, bias=False)
          (key_projection): Linear(in_features=444, out_features=272, bias=False)
          (value_projection): Linear(in_features=444, out_features=272, bias=False)
          (layer_norm): LayerNorm((272,), eps=1e-05, elementwise_affine=True)
          (residual_fc): Linear(in_features=272, out_features=272, bias=True)
          (dropout): Dropout(p=0.1, inplace=False)
        )
      )
      (merge_layers): ModuleList(
        (0): MergeLayer(
          (fc1): Linear(in_features=444, out_features=172, bias=True)
          (fc2): Linear(in_features=172, out_features=172, bias=True)
          (act): ReLU()
        )
      )
    )
  )
  (1): MergeLayer(
    (fc1): Linear(in_features=344, out_features=172, bias=True)
    (fc2): Linear(in_features=172, out_features=1, bias=True)
    (act): ReLU()
  )
)
INFO:root:model name: TGN, #parameters: 4212952 B, 4114.2109375 KB, 4.017784118652344 MB.
The dataset has 61156 interactions, involving 18470 different nodes
The training dataset has 30070 interactions, involving 12678 different nodes
The validation dataset has 9173 interactions, involving 5479 different nodes
The test dataset has 9174 interactions, involving 5328 different nodes
…
The validation dataset has 9173 interactions, involving 5479 different nodes
The test dataset has 9174 interactions, involving 5328 different nodes
The new node validation dataset has 4957 interactions, involving 4196 different nodes
The new node test dataset has 5073 interactions, involving 4153 different nodes
1847 nodes were used for the inductive testing, i.e. are never seen during training
  0%|                                                                                           | 0/151 [00:00<?, ?it/s]INFO:root:model -> Sequential(
  (0): MemoryModel(
    (time_transformation_for_init): TimeInitTransformExp(
      (lin): Linear(in_features=1, out_features=1, bias=False)
    )
    (mlp_for_mean): Sequential(
      (0): Linear(in_features=172, out_features=172, bias=True)
    )
    (mlp_for_sigma): Sequential(
      (0): Linear(in_features=172, out_features=172, bias=True)
    )
    (time_encoder): TimeEncoder(
      (w): Linear(in_features=1, out_features=100, bias=True)
    )
    (emb_proj): Sequential(
      (0): Linear(in_features=172, out_features=172, bias=True)
      (1): ReLU()
    )
    (message_aggregator): MessageAggregator()
    (memory_bank): MemoryBank(num_nodes=10108, memory_dim=172)
    (memory_updater): GRUMemoryUpdater(
      (memory_bank): MemoryBank(num_nodes=10108, memory_dim=172)
      (memory_updater): GRUCell(616, 172)
    )
    (embedding_module): GraphAttentionEmbedding(
      (time_encoder): TimeEncoder(
        (w): Linear(in_features=1, out_features=100, bias=True)
      )
      (temporal_conv_layers): ModuleList(
        (0): MultiHeadAttention(
          (query_projection): Linear(in_features=272, out_features=272, bias=False)
          (key_projection): Linear(in_features=444, out_features=272, bias=False)
          (value_projection): Linear(in_features=444, out_features=272, bias=False)
          (layer_norm): LayerNorm((272,), eps=1e-05, elementwise_affine=True)
          (residual_fc): Linear(in_features=272, out_features=272, bias=True)
          (dropout): Dropout(p=0.1, inplace=False)
        )
      )
      (merge_layers): ModuleList(
        (0): MergeLayer(
          (fc1): Linear(in_features=444, out_features=172, bias=True)
          (fc2): Linear(in_features=172, out_features=172, bias=True)
          (act): ReLU()
        )
      )
    )
  )
  (1): MergeLayer(
    (fc1): Linear(in_features=344, out_features=172, bias=True)
    (fc2): Linear(in_features=172, out_features=1, bias=True)
    (act): ReLU()
  )
)
INFO:root:model name: TGN, #parameters: 4212952 B, 4114.2109375 KB, 4.017784118652344 MB.
INFO:root:model -> Sequential(
  (0): MemoryModel(
    (time_transformation_for_init): TimeInitTransformExp(
      (lin): Linear(in_features=1, out_features=1, bias=False)
    )
    (mlp_for_mean): Sequential(
      (0): Linear(in_features=172, out_features=172, bias=True)
    )
    (mlp_for_sigma): Sequential(
      (0): Linear(in_features=172, out_features=172, bias=True)
    )
    (time_encoder): TimeEncoder(
      (w): Linear(in_features=1, out_features=100, bias=True)
    )
    (emb_proj): Sequential(
      (0): Linear(in_features=172, out_features=172, bias=True)
      (1): ReLU()
    )
    (message_aggregator): MessageAggregator()
    (memory_bank): MemoryBank(num_nodes=27046, memory_dim=172)
    (memory_updater): GRUMemoryUpdater(
      (memory_bank): MemoryBank(num_nodes=27046, memory_dim=172)
      (memory_updater): GRUCell(616, 172)
    )
    (embedding_module): GraphAttentionEmbedding(
      (time_encoder): TimeEncoder(
        (w): Linear(in_features=1, out_features=100, bias=True)
      )
      (temporal_conv_layers): ModuleList(
        (0): MultiHeadAttention(
          (query_projection): Linear(in_features=272, out_features=272, bias=False)
          (key_projection): Linear(in_features=444, out_features=272, bias=False)
          (value_projection): Linear(in_features=444, out_features=272, bias=False)
          (layer_norm): LayerNorm((272,), eps=1e-05, elementwise_affine=True)
          (residual_fc): Linear(in_features=272, out_features=272, bias=True)
          (dropout): Dropout(p=0.1, inplace=False)
        )
      )
      (merge_layers): ModuleList(
        (0): MergeLayer(
          (fc1): Linear(in_features=444, out_features=172, bias=True)
          (fc2): Linear(in_features=172, out_features=172, bias=True)
          (act): ReLU()
        )
      )
    )
  )
  (1): MergeLayer(
    (fc1): Linear(in_features=344, out_features=172, bias=True)
    (fc2): Linear(in_features=172, out_features=1, bias=True)
    (act): ReLU()
  )
)
The dataset has 50631 interactions, involving 10106 different nodes
The training dataset has 29100 interactions, involving 7154 different nodes
The validation dataset has 7596 interactions, involving 4118 different nodes
The test dataset has 7577 interactions, involving 4144 different nodes
The new node validation dataset has 3845 interactions, involving 2930 different nodes
…
