…
e=1, channel_embedding_dim=50, max_input_sequence_length=32, learning_rate=0.0001, dropout=0.1, num_epochs=100, optimizer='AdamW', weight_decay=0.0, patience=150, val_ratio=0.15, test_ratio=0.15, num_runs=1, test_interval_epochs=10, negative_sample_strategy='random', load_best_configs=True, use_wandb='lincorrect-time-linear', use_ROPe=False, t1_factor_of_t2=1, use_init_method=True, emb_proj=False, init_weights='time-linear', clip=1.0, device='cuda:1', seed=0, save_model_name='TGN_seed0_dummy-4c7j0fz9')
INFO:root:model -> Sequential(
  (0): MemoryModel(
    (time_encoder): TimeEncoder(
      (w): Linear(in_features=1, out_features=100, bias=True)
    )
    (emb_proj): Sequential(
      (0): Linear(in_features=172, out_features=172, bias=True)
      (1): ReLU()
    )
    (time_transformation_for_init): TimeInitTransformLinear(
      (lin): Linear(in_features=1, out_features=1, bias=True)
    )
    (message_aggregator): MessageAggregator()
    (memory_bank): MemoryBank(num_nodes=10108, memory_dim=172)
    (memory_updater): GRUMemoryUpdater(
      (memory_bank): MemoryBank(num_nodes=10108, memory_dim=172)
      (memory_updater): GRUCell(616, 172)
    )
    (embedding_module): GraphAttentionEmbedding(
      (time_encoder): TimeEncoder(
        (w): Linear(in_features=1, out_features=100, bias=True)
      )
      (temporal_conv_layers): ModuleList(
        (0): MultiHeadAttention(
          (query_projection): Linear(in_features=272, out_features=272, bias=False)
          (key_projection): Linear(in_features=444, out_features=272, bias=False)
          (value_projection): Linear(in_features=444, out_features=272, bias=False)
          (layer_norm): LayerNorm((272,), eps=1e-05, elementwise_affine=True)
          (residual_fc): Linear(in_features=272, out_features=272, bias=True)
          (dropout): Dropout(p=0.1, inplace=False)
        )
      )
      (merge_layers): ModuleList(
        (0): MergeLayer(
          (fc1): Linear(in_features=444, out_features=172, bias=True)
          (fc2): Linear(in_features=172, out_features=172, bias=True)
          (act): ReLU()
        )
      )
    )
  )
  (1): MergeLayer(
    (fc1): Linear(in_features=344, out_features=172, bias=True)
    (fc2): Linear(in_features=172, out_features=1, bias=True)
    (act): ReLU()
  )
)
INFO:root:model name: TGN, #parameters: 3974904 B, 3881.7421875 KB, 3.7907638549804688 MB.
INFO:root:model -> Sequential(
  (0): MemoryModel(
    (time_encoder): TimeEncoder(
      (w): Linear(in_features=1, out_features=100, bias=True)
    )
    (emb_proj): Sequential(
      (0): Linear(in_features=172, out_features=172, bias=True)
      (1): ReLU()
    )
    (time_transformation_for_init): TimeInitTransformLinear(
      (lin): Linear(in_features=1, out_features=1, bias=True)
    )
    (message_aggregator): MessageAggregator()
    (memory_bank): MemoryBank(num_nodes=27046, memory_dim=172)
    (memory_updater): GRUMemoryUpdater(
      (memory_bank): MemoryBank(num_nodes=27046, memory_dim=172)
      (memory_updater): GRUCell(616, 172)
    )
    (embedding_module): GraphAttentionEmbedding(
      (time_encoder): TimeEncoder(
        (w): Linear(in_features=1, out_features=100, bias=True)
      )
      (temporal_conv_layers): ModuleList(
        (0): MultiHeadAttention(
          (query_projection): Linear(in_features=272, out_features=272, bias=False)
          (key_projection): Linear(in_features=444, out_features=272, bias=False)
          (value_projection): Linear(in_features=444, out_features=272, bias=False)
          (layer_norm): LayerNorm((272,), eps=1e-05, elementwise_affine=True)
          (residual_fc): Linear(in_features=272, out_features=272, bias=True)
          (dropout): Dropout(p=0.1, inplace=False)
        )
      )
      (merge_layers): ModuleList(
        (0): MergeLayer(
          (fc1): Linear(in_features=444, out_features=172, bias=True)
          (fc2): Linear(in_features=172, out_features=172, bias=True)
          (act): ReLU()
        )
      )
    )
  )
  (1): MergeLayer(
    (fc1): Linear(in_features=344, out_features=172, bias=True)
    (fc2): Linear(in_features=172, out_features=1, bias=True)
    (act): ReLU()
  )
)
INFO:root:model name: TGN, #parameters: 3974904 B, 3881.7421875 KB, 3.7907638549804688 MB.
The dataset has 50631 interactions, involving 10106 different nodes
The training dataset has 29100 interactions, involving 7154 different nodes
The validation dataset has 7596 interactions, involving 4118 different nodes
The test dataset has 7577 interactions, involving 4144 different nodes
…
  0%|                                                                                           | 0/146 [00:00<?, ?it/s]The dataset has 52049 interactions, involving 6809 different nodes
The training dataset has 23625 interactions, involving 3838 different nodes
The validation dataset has 7807 interactions, involving 1715 different nodes
The test dataset has 7808 interactions, involving 1937 different nodes
The new node validation dataset has 4011 interactions, involving 1185 different nodes
The new node test dataset has 4611 interactions, involving 1531 different nodes
680 nodes were used for the inductive testing, i.e. are never seen during training
INFO:root:model -> Sequential(
  (0): MemoryModel(
    (time_encoder): TimeEncoder(
      (w): Linear(in_features=1, out_features=100, bias=True)
    )
    (emb_proj): Sequential(
      (0): Linear(in_features=172, out_features=172, bias=True)
      (1): ReLU()
    )
    (time_transformation_for_init): TimeInitTransformLinear(
      (lin): Linear(in_features=1, out_features=1, bias=True)
    )
    (message_aggregator): MessageAggregator()
    (memory_bank): MemoryBank(num_nodes=18471, memory_dim=172)
    (memory_updater): GRUMemoryUpdater(
      (memory_bank): MemoryBank(num_nodes=18471, memory_dim=172)
      (memory_updater): GRUCell(616, 172)
    )
    (embedding_module): GraphAttentionEmbedding(
      (time_encoder): TimeEncoder(
        (w): Linear(in_features=1, out_features=100, bias=True)
      )
      (temporal_conv_layers): ModuleList(
        (0): MultiHeadAttention(
          (query_projection): Linear(in_features=272, out_features=272, bias=False)
          (key_projection): Linear(in_features=444, out_features=272, bias=False)
          (value_projection): Linear(in_features=444, out_features=272, bias=False)
          (layer_norm): LayerNorm((272,), eps=1e-05, elementwise_affine=True)
          (residual_fc): Linear(in_features=272, out_features=272, bias=True)
          (dropout): Dropout(p=0.1, inplace=False)
        )
      )
      (merge_layers): ModuleList(
        (0): MergeLayer(
          (fc1): Linear(in_features=444, out_features=172, bias=True)
          (fc2): Linear(in_features=172, out_features=172, bias=True)
          (act): ReLU()
        )
      )
    )
  )
  (1): MergeLayer(
    (fc1): Linear(in_features=344, out_features=172, bias=True)
    (fc2): Linear(in_features=172, out_features=1, bias=True)
    (act): ReLU()
  )
)
  0%|                                                                                           | 0/119 [00:00<?, ?it/s]INFO:root:model name: TGN, #parameters: 3974904 B, 3881.7421875 KB, 3.7907638549804688 MB.
The dataset has 61156 interactions, involving 18470 different nodes
The training dataset has 30070 interactions, involving 12678 different nodes
…
